…
    apply_saturation=False,
)

# Build the model by providing an input shape
inputs = Input(shape=(img_width, img_height, 3))        # Input shape
_ = model.call(inputs)                                  # Call the model to build it
model.summary()                                         # Print the model summary
Model: "rare_species_cnn"
┏━━━━━━━━━━━━━━━━━━━━━━━━━━━━━━━━━┳━━━━━━━━━━━━━━━━━━━━━━━━┳━━━━━━━━━━━━━━━┓
┃ Layer (type)                    ┃ Output Shape           ┃       Param # ┃
┡━━━━━━━━━━━━━━━━━━━━━━━━━━━━━━━━━╇━━━━━━━━━━━━━━━━━━━━━━━━╇━━━━━━━━━━━━━━━┩
│ Rescale_Layer (Rescaling)       │ (None, 224, 224, 3)    │             0 │
├─────────────────────────────────┼────────────────────────┼───────────────┤
│ Conv_Block1_Conv (Conv2D)       │ (None, 224, 224, 32)   │           896 │
├─────────────────────────────────┼────────────────────────┼───────────────┤
│ Conv_Block1_BN                  │ (None, 224, 224, 32)   │           128 │
│ (BatchNormalization)            │                        │               │
├─────────────────────────────────┼────────────────────────┼───────────────┤
│ Conv_Block1_Act (Activation)    │ (None, 224, 224, 32)   │             0 │
├─────────────────────────────────┼────────────────────────┼───────────────┤
│ Conv_Block1_Pool (MaxPooling2D) │ (None, 112, 112, 32)   │             0 │
├─────────────────────────────────┼────────────────────────┼───────────────┤
│ Conv_Block2_Conv (Conv2D)       │ (None, 112, 112, 64)   │        18,496 │
├─────────────────────────────────┼────────────────────────┼───────────────┤
│ Conv_Block2_BN                  │ (None, 112, 112, 64)   │           256 │
│ (BatchNormalization)            │                        │               │
├─────────────────────────────────┼────────────────────────┼───────────────┤
│ Conv_Block2_Act (Activation)    │ (None, 112, 112, 64)   │             0 │
├─────────────────────────────────┼────────────────────────┼───────────────┤
│ Conv_Block2_Pool (MaxPooling2D) │ (None, 56, 56, 64)     │             0 │
├─────────────────────────────────┼────────────────────────┼───────────────┤
│ Conv_Block3_Conv (Conv2D)       │ (None, 56, 56, 128)    │        73,856 │
├─────────────────────────────────┼────────────────────────┼───────────────┤
│ Conv_Block3_BN                  │ (None, 56, 56, 128)    │           512 │
│ (BatchNormalization)            │                        │               │
├─────────────────────────────────┼────────────────────────┼───────────────┤
│ Conv_Block3_Act (Activation)    │ (None, 56, 56, 128)    │             0 │
├─────────────────────────────────┼────────────────────────┼───────────────┤
│ Conv_Block3_Pool (MaxPooling2D) │ (None, 28, 28, 128)    │             0 │
├─────────────────────────────────┼────────────────────────┼───────────────┤
│ Conv_Block4_Conv (Conv2D)       │ (None, 28, 28, 256)    │       295,168 │
├─────────────────────────────────┼────────────────────────┼───────────────┤
│ Conv_Block4_BN                  │ (None, 28, 28, 256)    │         1,024 │
│ (BatchNormalization)            │                        │               │
├─────────────────────────────────┼────────────────────────┼───────────────┤
│ Conv_Block4_Act (Activation)    │ (None, 28, 28, 256)    │             0 │
├─────────────────────────────────┼────────────────────────┼───────────────┤
│ Conv_Block4_Pool (MaxPooling2D) │ (None, 14, 14, 256)    │             0 │
├─────────────────────────────────┼────────────────────────┼───────────────┤
│ Global_Average_Pooling          │ (None, 256)            │             0 │
│ (GlobalAveragePooling2D)        │                        │               │
├─────────────────────────────────┼────────────────────────┼───────────────┤
│ Dense_Layer1 (Dense)            │ (None, 128)            │        32,896 │
├─────────────────────────────────┼────────────────────────┼───────────────┤
│ Dense_Layer1_BN                 │ (None, 128)            │           512 │
│ (BatchNormalization)            │                        │               │
├─────────────────────────────────┼────────────────────────┼───────────────┤
│ Dense_Layer1_Act (Activation)   │ (None, 128)            │             0 │
├─────────────────────────────────┼────────────────────────┼───────────────┤
│ Dropout_Layer (Dropout)         │ (None, 128)            │             0 │
├─────────────────────────────────┼────────────────────────┼───────────────┤
│ Output_Layer (Dense)            │ (None, 202)            │        26,058 │
└─────────────────────────────────┴────────────────────────┴───────────────┘
 Total params: 449,802 (1.72 MB)
 Trainable params: 448,586 (1.71 MB)
 Non-trainable params: 1,216 (4.75 KB)
# Visualize the model architecture
# Source: https://www.kaggle.com/code/devsubhash/visualize-deep-learning-models-using-visualkeras
visualkeras.layered_view(model,
                         legend=True,
                         show_dimension=True,
…
    apply_saturation=False,
)

# Build the model by providing an input shape
inputs = Input(shape=(img_width, img_height, 3))        # Input shape
_ = model.call(inputs)                                  # Call the model to build it
model.summary()                                         # Print the model summary
Model: "rare_species_cnn_vgg19"
┏━━━━━━━━━━━━━━━━━━━━━━━━━━━━━━━━━┳━━━━━━━━━━━━━━━━━━━━━━━━┳━━━━━━━━━━━━━━━┓
┃ Layer (type)                    ┃ Output Shape           ┃       Param # ┃
┡━━━━━━━━━━━━━━━━━━━━━━━━━━━━━━━━━╇━━━━━━━━━━━━━━━━━━━━━━━━╇━━━━━━━━━━━━━━━┩
│ VGG19_Preprocess (Lambda)       │ (None, 224, 224, 3)    │             0 │
├─────────────────────────────────┼────────────────────────┼───────────────┤
│ vgg19 (Functional)              │ (None, 7, 7, 512)      │    20,024,384 │
├─────────────────────────────────┼────────────────────────┼───────────────┤
│ Global_Average_Pooling          │ (None, 512)            │             0 │
│ (GlobalAveragePooling2D)        │                        │               │
├─────────────────────────────────┼────────────────────────┼───────────────┤
│ Dense_Layer1 (Dense)            │ (None, 128)            │        65,664 │
├─────────────────────────────────┼────────────────────────┼───────────────┤
│ Dropout_Layer (Dropout)         │ (None, 128)            │             0 │
├─────────────────────────────────┼────────────────────────┼───────────────┤
│ Output_Layer (Dense)            │ (None, 202)            │        26,058 │
└─────────────────────────────────┴────────────────────────┴───────────────┘
 Total params: 20,116,106 (76.74 MB)
 Trainable params: 91,722 (358.29 KB)
 Non-trainable params: 20,024,384 (76.39 MB)
🥇 Best Combinations Models
Original | Grayscale=F | Contrast=F | Saturation=F

[...] - ALL RESULTAS ARE IN THE TABLE OF APPENDIX C


======================================================================================== 5_Modeling_ResNet50V2_DLProject_Group37.ipynb
…
    apply_saturation=False,
)

# Build the model by providing an input shape
inputs = Input(shape=(img_width, img_height, 3))        # Input shape
_ = model.call(inputs)                                  # Call the model to build it
model.summary()                                         # Print the model summary
Model: "rare_species_cnn__res_net152v2"
┏━━━━━━━━━━━━━━━━━━━━━━━━━━━━━━━━━┳━━━━━━━━━━━━━━━━━━━━━━━━┳━━━━━━━━━━━━━━━┓
┃ Layer (type)                    ┃ Output Shape           ┃       Param # ┃
┡━━━━━━━━━━━━━━━━━━━━━━━━━━━━━━━━━╇━━━━━━━━━━━━━━━━━━━━━━━━╇━━━━━━━━━━━━━━━┩
│ ResNet152V2_Preprocess (Lambda) │ (None, 224, 224, 3)    │             0 │
├─────────────────────────────────┼────────────────────────┼───────────────┤
│ resnet152v2 (Functional)        │ (None, 7, 7, 2048)     │    58,331,648 │
├─────────────────────────────────┼────────────────────────┼───────────────┤
│ Global_Average_Pooling          │ (None, 2048)           │             0 │
│ (GlobalAveragePooling2D)        │                        │               │
├─────────────────────────────────┼────────────────────────┼───────────────┤
│ Dense_Layer1 (Dense)            │ (None, 128)            │       262,272 │
├─────────────────────────────────┼────────────────────────┼───────────────┤
│ Dropout_Layer (Dropout)         │ (None, 128)            │             0 │
├─────────────────────────────────┼────────────────────────┼───────────────┤
│ Output_Layer (Dense)            │ (None, 202)            │        26,058 │
└─────────────────────────────────┴────────────────────────┴───────────────┘
 Total params: 58,619,978 (223.62 MB)
 Trainable params: 288,330 (1.10 MB)
 Non-trainable params: 58,331,648 (222.52 MB)
🥇 Best Combinations Models
Original | Grayscale=F | Contrast=F | Saturation=F

[...] - ALL RESULTAS ARE IN THE TABLE OF APPENDIX C
 
======================================================================================== 6_Modeling_ConvNeXt_DLProject_Group37.ipynb
…
_ = model.call(inputs)                                  # Call the model to build it
model.summary()                                         # Print the model summary
Downloading data from https://storage.googleapis.com/tensorflow/keras-applications/convnext/convnext_base_notop.h5
350926856/350926856 ━━━━━━━━━━━━━━━━━━━━ 8s 0us/step
Model: "rare_species_cnn__conv_ne_xt_base"
┏━━━━━━━━━━━━━━━━━━━━━━━━━━━━━━━━━┳━━━━━━━━━━━━━━━━━━━━━━━━┳━━━━━━━━━━━━━━━┓
┃ Layer (type)                    ┃ Output Shape           ┃       Param # ┃
┡━━━━━━━━━━━━━━━━━━━━━━━━━━━━━━━━━╇━━━━━━━━━━━━━━━━━━━━━━━━╇━━━━━━━━━━━━━━━┩
│ ConvNeXtBase_Preprocess         │ (None, 224, 224, 3)    │             0 │
│ (Lambda)                        │                        │               │
├─────────────────────────────────┼────────────────────────┼───────────────┤
│ convnext_base (Functional)      │ (None, 7, 7, 1024)     │    87,566,464 │
├─────────────────────────────────┼────────────────────────┼───────────────┤
│ Global_Average_Pooling          │ (None, 1024)           │             0 │
│ (GlobalAveragePooling2D)        │                        │               │
├─────────────────────────────────┼────────────────────────┼───────────────┤
│ Dense_Layer1 (Dense)            │ (None, 128)            │       131,200 │
├─────────────────────────────────┼────────────────────────┼───────────────┤
│ Dropout_Layer (Dropout)         │ (None, 128)            │             0 │
├─────────────────────────────────┼────────────────────────┼───────────────┤
│ Output_Layer (Dense)            │ (None, 202)            │        26,058 │
└─────────────────────────────────┴────────────────────────┴───────────────┘
 Total params: 87,723,722 (334.64 MB)
 Trainable params: 157,258 (614.29 KB)
 Non-trainable params: 87,566,464 (334.04 MB)
🥇 Best Combinations Models
Original | Grayscale=F | Contrast=F | Saturation=F

[...] - ALL RESULTAS ARE IN THE TABLE OF APPENDIX C

======================================================================================== 7_Modeling_EfficientNetB0_DLProject_Group37.ipynb
…
    apply_saturation=False,
)

# Build the model by providing an input shape
inputs = Input(shape=(img_width, img_height, 3))        # Input shape
_ = model.call(inputs)                                  # Call the model to build it
model.summary()                                         # Print the model summary
Model: "rare_species_cnn__efficient_net_v2b0"
┏━━━━━━━━━━━━━━━━━━━━━━━━━━━━━━━━━┳━━━━━━━━━━━━━━━━━━━━━━━━┳━━━━━━━━━━━━━━━┓
┃ Layer (type)                    ┃ Output Shape           ┃       Param # ┃
┡━━━━━━━━━━━━━━━━━━━━━━━━━━━━━━━━━╇━━━━━━━━━━━━━━━━━━━━━━━━╇━━━━━━━━━━━━━━━┩
│ EfficientNetV2_Preprocess       │ (None, 224, 224, 3)    │             0 │
│ (Lambda)                        │                        │               │
├─────────────────────────────────┼────────────────────────┼───────────────┤
│ efficientnetv2-b0 (Functional)  │ (None, 7, 7, 1280)     │     5,919,312 │
├─────────────────────────────────┼────────────────────────┼───────────────┤
│ Global_Average_Pooling          │ (None, 1280)           │             0 │
│ (GlobalAveragePooling2D)        │                        │               │
├─────────────────────────────────┼────────────────────────┼───────────────┤
│ Dense_Layer1 (Dense)            │ (None, 128)            │       163,968 │
├─────────────────────────────────┼────────────────────────┼───────────────┤
│ Dropout_Layer (Dropout)         │ (None, 128)            │             0 │
├─────────────────────────────────┼────────────────────────┼───────────────┤
│ Output_Layer (Dense)            │ (None, 202)            │        26,058 │
└─────────────────────────────────┴────────────────────────┴───────────────┘
 Total params: 6,109,338 (23.31 MB)
 Trainable params: 190,026 (742.29 KB)
 Non-trainable params: 5,919,312 (22.58 MB)
🥇 Best Combinations Models
Original | Grayscale=F | Contrast=F | Saturation=F

[...] - ALL RESULTAS ARE IN THE TABLE OF APPENDIX C

========================================================================================  8_TuningBestModel_DLProject_Group37.ipynb
…
